Assets/My Behavior.onnx (onnx, 544521 bytes, 12 tensors)

network_body.observation_encoder.processors.0.normalizer.running_mean f4 [3]
0	0x3e1a58a0	0.1507287
1	0x4206a367	33.659573
2	0x411b5937	9.709281

network_body._body_endoder.seq_layers.0.weight f4 [256, 3]
0	0x3e93cde5	0.28868023
1	0xbd8a0ab4	-0.06740323
2	0xbf15247f	-0.58258814
3	0x3de67c6c	0.112542
4	0x3f7d9358	0.99052954
5	0xbf3bb70a	-0.7332617
6	0x3f131853	0.5745899
7	0x3ecb000b	0.3964847
8	0xbe2619a9	-0.16220726
9	0xbe001012	-0.1250613
10	0x3de6fb88	0.112784445
11	0x3e06568a	0.1311895
12	0xbf404b59	-0.7511497
13	0x3eea24c0	0.45731163
14	0xbec32b74	-0.3811909
15	0xbf261ee0	-0.6489086
16	0x3efeb605	0.49748245
17	0xbf890477	-1.0704488
18	0xbe393c18	-0.1808933
19	0xbd9cb2f6	-0.076513216
20	0x3ed9a701	0.42510226
21	0xbd549ccf	-0.051907357
22	0xbdac5c0d	-0.08415995
23	0x3f7111c6	0.94167745
24	0x3ee965fd	0.45585623
25	0xbe0ad10e	-0.1355631
26	0x3e0f186b	0.13974158
27	0xbf4b62cf	-0.79447645
28	0x3e40222b	0.18763034
29	0x3f978bc0	1.1839523
30	0x3d0501ec	0.032472536
31	0xbe80c368	-0.25149083
32	0xbeacbc6f	-0.33737513
33	0xbe86f600	-0.26359558
34	0x3f0b7987	0.5448231
35	0x3e39dad4	0.18149883
36	0xbf0112d1	-0.50419337
37	0xbf73a8a6	-0.9517921
38	0x3f371fa7	0.7153267
39	0xbed6bee0	-0.419425
40	0x3d6666b2	0.05625028
41	0xbf65fb80	-0.89836884
42	0x3e1e37ff	0.15451048
43	0x3db3b41c	0.087745875
44	0xbd0271fc	-0.031846985
45	0x3f706a47	0.93912166
46	0xbef428d6	-0.47687405
47	0x3eff1e3d	0.49827757
48	0xbeef0aac	-0.4668783
49	0x3f2399e4	0.63906693
50	0xbd26b4dc	-0.040699825
51	0x3f92bb9e	1.1463506
52	0xbd672418	-0.056430906
53	0x3f684ee3	0.9074537
54	0x3f2a9bca	0.66643965
55	0xbf1e8a56	-0.61929834
56	0xbf1c3c21	-0.6102925
57	0x3e8ed22f	0.27894732
58	0x3ef449ab	0.47712454
59	0x3f155596	0.5833372
60	0x3fb0b22c	1.3804374
61	0x3f08bc5c	0.53412414
62	0xbf9399b0	-1.1531277
63	0x3e9339f5	0.28755155
64	0x3efc6759	0.49297598
65	0x3ebea939	0.37238482
66	0x3d9e570c	0.077314466
67	0x3efee597	0.49784538
68	0x3eb406de	0.3516149
69	0xbe5599f4	-0.2085951
70	0xbed691e1	-0.41908172
71	0x3f152206	0.5825504
72	0xbe940b15	-0.28914705
73	0x3f485f27	0.7827019
74	0xbf35547c	-0.7083204
75	0x3ea5dc76	0.3239476
76	0x3f7d7d46	0.9901928
77	0xbf19999d	-0.6000002
78	0x3ea8c9b5	0.3296639
79	0x3e99f87e	0.30072397
80	0xbe54f746	-0.20797452
81	0xbed1ef84	-0.41003048
82	0x3ec7fc8a	0.3905986
83	0x3f0a4e20	0.5402546
84	0xbf8577ea	-1.042722
85	0x3ed81d17	0.42209694
86	0x3f9fda72	1.2488539
87	0x3d7b78cd	0.0613945
88	0xbfc4f5db	-1.5387529
89	0xbf0e1e46	-0.55514944
90	0x3eaebb5b	0.34127316
91	0xbf46ef8d	-0.77709275
92	0xbf74626a	-0.9546267
93	0xbec8a4bb	-0.3918818
94	0xbf171976	-0.59023225
95	0xbf4095ca	-0.7522856
96	0xbe1fbc0b	-0.15599076
97	0xbbed4c60	-0.0072417706
98	0xbf152be2	-0.58270085
99	0x3e250da2	0.16118482
100	0x3de82d10	0.1133672
101	0xbe0e583f	-0.1390085
102	0xbeb17440	-0.34659004
103	0x3eb50f95	0.3536345
104	0x3dec9025	0.11550931
105	0x3f29b2c1	0.6628838
106	0x3f188c70	0.5958929
107	0x3d120e6c	0.035658285
108	0xbf5c823c	-0.8613622
109	0xbd08b4d7	-0.033375587
110	0xbf78b57c	-0.97151923
111	0xbedef499	-0.43545988
112	0x3e001269	0.12507023
113	0xbe85e4d6	-0.2615115
114	0xbeb28450	-0.3486657
115	0xbeff9810	-0.49920702
116	0x3f1128dd	0.5670298
117	0xbea8c14b	-0.3295997
118	0xbee22662	-0.4416991
119	0x3dca0bfb	0.09865566
120	0xbf10f78d	-0.5662773
121	0x3ed2de41	0.4118519
122	0x3f5b63d0	0.85699177
123	0xbd07b97b	-0.033135872
124	0x3e6bf354	0.23042041
125	0x3ef32839	0.47491625
126	0xbf04c997	-0.518701
127	0xbdb35b53	-0.08757653
128	0xbf11651c	-0.56794906
129	0xbfa1aaa9	-1.2630206
130	0x3eb10915	0.34577242
131	0xbf32559c	-0.6966188
132	0x3e94da66	0.29072875
133	0xbe43377c	-0.19064134
134	0xbf2d43f1	-0.67681795
135	0xbf229b17	-0.635179
136	0x3db71dd9	0.0894124
137	0x3e26d48f	0.16292022
138	0xbefa3341	-0.4886723
139	0x3f12986e	0.5726384
140	0xbeceaf7d	-0.40368262
141	0x3e8386db	0.25688824
142	0x3e138a38	0.14408195
143	0xbed3280c	-0.4124149
144	0x3ddc7e40	0.10766268
145	0xbf90cffc	-1.1313472
146	0x3f082810	0.5318613
147	0xbfcfdcf1	-1.6239301
148	0xbe94c35e	-0.29055303
149	0xbe391947	-0.18076049
150	0x3f98dd49	1.1942531
151	0x3f3e9dca	0.74459517
152	0xbcda06ac	-0.02661451
153	0x3fa464bb	1.284324
154	0xbde481e1	-0.11157585
155	0x3edb68e5	0.42853466
156	0xbe1d9480	-0.1538868
157	0x3d437e5f	0.04772794
158	0x3f589256	0.8459829
159	0x3e483038	0.19549644
160	0xbfa2084c	-1.2658782
161	0x3f1b0c80	0.6056595
162	0xbe83f95a	-0.25776178
163	0x3f73faac	0.9530437
164	0x3ee26944	0.44220936
165	0xbe0e75b4	-0.13912088
166	0x3e1e54ca	0.15462032
167	0x3f3dce9e	0.741434
168	0xbf0f7ae1	-0.56046873
169	0xbf2fba6b	-0.68643826
170	0xbdc061da	-0.09393664
171	0x3eeed91e	0.46650022
172	0xbf165097	-0.5871672
173	0x3f1b4086	0.6064533
174	0xbf34bbd5	-0.7059911
175	0x3fa820ea	1.3135045
176	0x3f663727	0.89927906
177	0xbeffa38c	-0.49929464
178	0x3f2adc41	0.6674233
179	0xbe33c452	-0.17555359
180	0xbe0b4c29	-0.13603272
181	0x3f353a5b	0.7079217
182	0x3d494030	0.04913348
183	0xbe959cda	-0.2922123
184	0x3e96a658	0.29423785
185	0x3e4c51b5	0.19953044
186	0xbece575a	-0.4030102
187	0xbdc0b657	-0.094097786
188	0xbd9e251a	-0.0772192
189	0x3f4370f0	0.76344204
190	0x3fa7312e	1.3061883
191	0x3eb81d2d	0.3595976
192	0x3f21145b	0.62921685
193	0xbf2f8996	-0.68569314
194	0xbed7477d	-0.4204673
195	0x3e693b13	0.22776441
196	0xbaba55ef	-0.0014216284
197	0x3da3ce17	0.07998293
198	0x3d802cb3	0.06258526
199	0xbe9a11a5	-0.30091587
200	0x3e757bc9	0.23973002
201	0x3e27b1d3	0.16376428
202	0xbf517172	-0.8181373
203	0x3e8503ac	0.25979364
204	0x3e82c998	0.2554443
205	0x3edadb4b	0.42745432
206	0xbe855fbb	-0.260496
207	0xbf5c2cac	-0.86005664
208	0x3d279f43	0.04092337
209	0x3efdf427	0.49600336
210	0xbda43f48	-0.080198824
211	0xbf2bc387	-0.67095226
212	0xbe5232de	-0.20527217
213	0xbfa3662c	-1.2765555
214	0xbf146518	-0.57966757
215	0xbc0f6cc4	-0.008753959
216	0xbea3b1f1	-0.31971696
217	0xbf0496e6	-0.5179275
218	0xbf9fd267	-1.2486085
219	0x3ebfeba2	0.3748446
220	0x3ed1923e	0.40931886
221	0xbc7b880d	-0.015352261
222	0xbe9976ef	-0.29973552
223	0xbf2498eb	-0.64295834
224	0xbf62efc9	-0.88647133
225	0xbf87bd30	-1.060461
226	0x3e428419	0.18995704
227	0x3f5acde1	0.85470396
228	0x3f414819	0.7550064
229	0xbf9f0d75	-1.2425982
230	0xbe09e9de	-0.1346812
231	0xbf823170	-1.0171337
232	0x3e17107e	0.14752385
233	0x3f9685d8	1.1759596
234	0xbf858a06	-1.0432746
235	0xbeeef126	-0.46668357
236	0x3e2fd1b7	0.17169844
237	0x3d5e079f	0.054206487
238	0x3f788a29	0.97085816
239	0x3e9cce0e	0.30625957
240	0xbf570017	-0.8398451
241	0x3f16e3cf	0.5894136
242	0xbf1168d5	-0.56800586
243	0xbf2b44b3	-0.669017
244	0x3efb2a13	0.49055538
245	0xbee9c902	-0.4566117
246	0xbf08fec7	-0.5351376
247	0xbf07ea66	-0.5309204
248	0xbf8845b1	-1.0646268
249	0x3e83b825	0.2572643
250	0x3f1007ed	0.56262094
251	0x3d1f8e68	0.03895417
252	0x3f8aba74	1.0838151
253	0xbe3bb24a	-0.1832973
254	0xbf72edc2	-0.9489404
255	0x3f16d9d3	0.58926123

network_body._body_endoder.seq_layers.0.bias f4 [256]
0	0xbd857cde	-0.06517957
1	0x3d89c6d5	0.06727377
2	0xbd14dcab	-0.036343258
3	0x3d843ff7	0.06457513
4	0x3d939851	0.072067864
5	0x3d917054	0.07101503
6	0x3d55d183	0.05220176
7	0x3dd19770	0.102339625
8	0xba3ce627	-0.0007205926
9	0x3d9bf674	0.076153666
10	0xbd8733fb	-0.06601711
11	0x3db34ea3	0.08755233
12	0xbc4921e4	-0.012276147
13	0x3d5e01e0	0.054201007
14	0x3d70a3b5	0.058749873
15	0x3da7fe22	0.08202769
16	0x3d7b850e	0.061406188
17	0x3d9ba1d9	0.07599229
18	0x3d4259d2	0.04744894
19	0x3d80a62b	0.06281694
20	0x3cd94d97	0.026526256
21	0x3dd5b5d4	0.104350716
22	0x3dba71fa	0.091037706
23	0x3d6640ca	0.05621413
24	0x3d92830e	0.07153903
25	0x3d7256f5	0.05916496
26	0x3d8c75fc	0.06858441
27	0x3dbd1f29	0.09234459
28	0x3daecfa7	0.085357
29	0xbd8fc4ae	-0.070199355
30	0xbdb70c6d	-0.08937917
31	0x3c8d3f38	0.01724206
32	0x3bd54520	0.0065084845
33	0xbdcd1be5	-0.10015086
34	0x3da5940e	0.0808488
35	0xba905a3f	-0.0011013224
36	0x3db14a95	0.086568035
37	0x3d7eed05	0.06223776
38	0x3dc71ce4	0.09722307
39	0xbd678985	-0.056527633
40	0x3da3f2ec	0.08005318
41	0x3dd07b15	0.10179726
42	0xbc952578	-0.018206343
43	0x3db1af46	0.08676009
44	0xbd101289	-0.035173927
45	0x3c1c9615	0.009557267
46	0x3d931c78	0.07183164
47	0xbd3bd7b6	-0.045860015
48	0x3c20124a	0.009769985
49	0x3dbabadf	0.09117674
50	0x3d586d7b	0.052838784
51	0x3cb0330c	0.021508716
52	0x3de9ae0e	0.114101514
53	0x3d1939c0	0.03740859
54	0x3db3baa6	0.08775835
55	0x3da6db7f	0.08147334
56	0xbd9ea2ee	-0.0774592
57	0x3b4c5da7	0.003118375
58	0x3da4ef1a	0.080534175
59	0x3d8ee520	0.06977296
60	0x3dba2723	0.09089496
61	0x3dd1f0c4	0.102510005
62	0xbd3a3721	-0.04546273
63	0x3dadf232	0.08493461
64	0x3cf8e6fb	0.030383578
65	0xbd385479	-0.045002434
66	0xbd926c8f	-0.07149612
67	0xbcfedd74	-0.031111456
68	0xbcf1b925	-0.02950723
69	0x3d0d090b	0.034432452
70	0xbd9d5f51	-0.07684196
71	0xbc49a485	-0.012307291
72	0x3c8d459a	0.017245103
73	0x3d01cdd0	0.03169042
74	0xbd4e9347	-0.050433423
75	0x3dc19f8a	0.09454258
76	0xbcad48e3	-0.02115292
77	0x3dafec0e	0.08589946
78	0xbd68530c	-0.056719825
79	0x3dc4c73e	0.09608315
80	0x3d095d9d	0.033536542
81	0x3da8fe50	0.08251631
82	0x3cca4eab	0.024695715
83	0x3d9b3ed3	0.07580342
84	0xbcbb4447	-0.022859706
85	0x3d7cc79e	0.061713807
86	0x3dd10c3b	0.10207411
87	0x3d8464ad	0.06464515
88	0x3d0759ba	0.033044554
89	0x3baf7460	0.005354449
90	0x3d0975c2	0.03355957
91	0xbdba6922	-0.09102084
92	0xbcf950d5	-0.030434052
93	0x3c771471	0.015080557
94	0x3d0de553	0.03464253
95	0x3dcd11c1	0.10013152
96	0xbc629c0e	-0.013831152
97	0x3dbc7e91	0.09203828
98	0xbcd226a3	-0.025653189
99	0xbd901eeb	-0.07037147
100	0x3dc82b58	0.09773892
101	0x3dac42cd	0.08411179
102	0x3b4ad74e	0.0030951086
103	0xbd974182	-0.073855415
104	0xbd638005	-0.05554201
105	0x3d974ad8	0.07387322
106	0x3d1dac14	0.038494185
107	0xbcc45ce8	-0.023970082
108	0x3d364f87	0.044509437
109	0xbd99e988	-0.07515246
110	0x3d86b65c	0.06577751
111	0xba1cb780	-0.00059782714
112	0x3db6d756	0.08927791
113	0xbd9705db	-0.07374164
114	0x3d27c3d0	0.040958226
115	0x3da7eb0b	0.08199128
116	0x3c8ce034	0.017196752
117	0x3d1f2adc	0.038859233
118	0x3dd41a5d	0.10356591
119	0x3d9411d9	0.07229967
120	0xbd52b19f	-0.051438924
121	0x3d7eb45a	0.062183715
122	0x3ca19da5	0.019728491
123	0x3bb435bb	0.0054995692
124	0x3ce1ee6c	0.027579509
125	0x3dd1d2f9	0.10245318
126	0x3ddc9d04	0.10772136
127	0x3db505c1	0.08838988
128	0x3da5de46	0.08099036
129	0x3bbc3d89	0.0057446402
130	0x3d3796cf	0.044821557
131	0x3dcc01b2	0.09961261
132	0x3dba1f3a	0.09087987
133	0x3d8b0188	0.067874014
134	0xbd7374bc	-0.0594375
135	0xbd86ba10	-0.06578457
136	0x3da64863	0.081192754
137	0x3de78cfa	0.11306186
138	0x3d9f1f33	0.07769623
139	0x3d9857bc	0.07438609
140	0xbda303f6	-0.0795974
141	0x3da78e24	0.08181408
142	0x3dae6184	0.085146934
143	0x3d86ce6d	0.06582341
144	0x3d747a9f	0.059687253
145	0xbda23f5a	-0.079222396
146	0x3d5e3e3c	0.05425857
147	0xbd0e553a	-0.034749247
148	0x3dbf4442	0.09339191
149	0x3d7e1061	0.06202734
150	0x3b639017	0.0034723335
151	0x3aa0fb83	0.0012281988
152	0xbd23a602	-0.03995324
153	0x3c3de952	0.011591272
154	0x3dc8ed12	0.098108426
155	0xbbfba0e7	-0.007679093
156	0x3d82a858	0.06379765
157	0x3da1d7f7	0.0790252
158	0xbd851727	-0.064985566
159	0xbd4b3b75	-0.04961725
160	0x3bed8351	0.00724832
161	0xbdb98d4d	-0.09060154
162	0x3da38c8e	0.07985793
163	0x3dd24dff	0.10268783
164	0x3db9f473	0.09079828
165	0x3dba6b80	0.09102535
166	0x3dd3c181	0.10339642
167	0xbde0c7da	-0.10975619
168	0xbd946b5c	-0.0724704
169	0x3da44887	0.08021646
170	0x3d1839db	0.03716455
171	0xbd5dccf5	-0.05415054
172	0xbcac90f1	-0.021065207
173	0x3d7668be	0.060158484
174	0xbd5cbe86	-0.053892635
175	0x3cabc698	0.02096872
176	0xbd38e383	-0.045138847
177	0xbd9a83e3	-0.07544687
178	0x3d2eee65	0.04270782
179	0x3d5c08d5	0.05371936
180	0xbc38bc8c	-0.011275422
181	0x3d84c299	0.06482429
182	0x3d7e7d71	0.06213135
183	0x3da6477f	0.081191055
184	0xbd7ac825	-0.06122603
185	0x3d7a72a3	0.061144482
186	0x3d29f119	0.041489694
187	0x3d23dc0b	0.04000477
188	0xbd4f82cf	-0.05066186
189	0x3da780a3	0.081788324
190	0xbadb0eef	-0.0016712825
191	0x3b416143	0.0029507435
192	0x3dcd82ad	0.1003469
193	0x3cb072c5	0.021539101
194	0x3ddb68f0	0.107133746
195	0xbd7df461	-0.062000636
196	0xbdb5d6c1	-0.08878852
197	0x3dac4ab8	0.08412689
198	0xbd06605a	-0.03280673
199	0x3b989dfe	0.004657506
200	0x3b7088bc	0.0036702594
201	0x3d2f1b42	0.042750604
202	0xbdb44789	-0.08802707
203	0xbdb4f04f	-0.08834898
204	0x3d67fdda	0.056638576
205	0x3d323f61	0.043517474
206	0x3da95b68	0.082693875
207	0x3d344a50	0.044016182
208	0xbc2868b8	-0.010278873
209	0x3d8ca8ba	0.068681195
210	0x3da15768	0.078779995
211	0xbc010f9c	-0.007877257
212	0x3b70878a	0.0036701881
213	0x3da15f0d	0.078794576
214	0xbd90960a	-0.07059868
215	0x3af1dc8f	0.0018452572
216	0x3d820608	0.063488066
217	0xbd8cf05d	-0.06881783
218	0xbd84879b	-0.06471177
219	0x3c7f0427	0.015564955
220	0x3d5f1af4	0.054469064
221	0x3d91d73e	0.07121132
222	0x3d620dde	0.055189006
223	0xbcb468e5	-0.022022674
224	0x3b13f45f	0.0022576076
225	0x3c9b9574	0.018992163
226	0xbda26292	-0.07928957
227	0x3dbf6a89	0.09346492
228	0x3d5dcba0	0.05414927
229	0x3d751523	0.05983461
230	0xbc0774c1	-0.008267582
231	0xbbc56ae1	-0.006024704
232	0x3d75b4d6	0.05998691
233	0x3dc4665d	0.09589837
234	0xbcc9bd3e	-0.02462637
235	0x3d8ec0aa	0.069703415
236	0x3d89466b	0.06702884
237	0x3da9b219	0.082859226
238	0xbc918116	-0.017761748
239	0x3db2cfe2	0.08731057
240	0xbd44b4f3	-0.04802413
241	0x3dac99f1	0.084277995
242	0x3ddfadeb	0.10921844
243	0x3d1b0616	0.0378476
244	0xbcefe1f0	-0.02928254
245	0x3db739fd	0.08946607
246	0xbd59bfa5	-0.053161282
247	0xbc4aed97	-0.012385747
248	0xbc4e1372	-0.012577878
249	0x3dc2d1dc	0.09512684
250	0x3d9ed512	0.07755484
251	0xbca032c6	-0.01955546
252	0x3d250b81	0.040294174
253	0x3de79dcc	0.11309394
254	0xbd7258e4	-0.059166804
255	0xbd0e0054	-0.03466828

network_body._body_endoder.seq_layers.2.weight f4 [256, 256]
0	0xbde06c79	-0.109581895
1	0x3d52cc67	0.051464465
2	0xbdc4216e	-0.09576689
3	0x3d2decb2	0.04246206
4	0xbcf4e3b5	-0.029893735
5	0xbdc8ab24	-0.097982675
6	0xbdd374a7	-0.10324984
7	0x3d64a893	0.055824827
8	0xbd629cbb	-0.05532525
9	0xbd24566d	-0.040121485
10	0xbcfe2d69	-0.031027513
11	0xbbc38e0e	-0.005967862
12	0xbcd32ab9	-0.025777208
13	0x3d513a9b	0.05108128
14	0xbcfad776	-0.030620318
15	0x3cd2897d	0.025700325
16	0xbc868845	-0.0164224
17	0x3d41981c	0.047264203
18	0xbdb194ac	-0.08670935
19	0xbd303f5d	-0.043029178
20	0x3df356a7	0.11881762
21	0x3d15050f	0.036381777
22	0x3ce4af01	0.02791548
23	0x3bc5d770	0.006037645
24	0x3d7ba685	0.061438102
25	0xbd524e2d	-0.051344085
26	0xbcfde9bf	-0.030995248
27	0x3b6258b0	0.0034537725
28	0x3c9cf30f	0.019158868
29	0xbc81bdc7	-0.015837563
30	0x3dc65264	0.096836835
31	0x3c533400	0.012890816
32	0xbbe9e373	-0.0071377098
33	0x3cb4997d	0.022045845
34	0xbcf33796	-0.029689591
35	0xbd3948e2	-0.045235522
36	0xbc107f1e	-0.00881937
37	0x3d577603	0.05260278
38	0x3d6f9a9e	0.058497064
39	0x3c98a957	0.018635435
40	0x3c917533	0.01775608
41	0x3cfb2473	0.030657029
42	0x3d5e565a	0.05428157
43	0x3d5b3028	0.053512722
44	0xbc9f2c36	-0.019430261
45	0x3d17de95	0.037077505
46	0x3d35796e	0.044305257
47	0xbbed15fd	-0.007235287
48	0xbc5c5c08	-0.013449676
49	0xbdb222dc	-0.08698055
50	0xbcbf02b4	-0.023316719
51	0x3d77599a	0.060388185
52	0x3d67d99c	0.056604013
53	0xbc9d7d48	-0.019224778
54	0xbca61d24	-0.020277567
55	0x3dcbfba8	0.09960109
56	0xbd1a3de5	-0.037656683
57	0x3c8d0d10	0.017218143
58	0x3cce8027	0.025207592
59	0xbd71b3e5	-0.05900945
60	0xbb335882	-0.0027365987
61	0x3c3fde8f	0.011710777
62	0x3cdfe22a	0.027329523
63	0x3d03590f	0.032067355
64	0x3bc69f74	0.0060614888
65	0xbdc01796	-0.09379499
66	0xbd06a9ec	-0.032876894
67	0x3cb8cf95	0.02255992
68	0x3d9688b3	0.07350292
69	0x3df2036b	0.11817058
70	0x3d047b04	0.03234388
71	0xbc3509b0	-0.011049673
72	0x3cf1d2b5	0.029519418
73	0x3db990b0	0.090608
74	0x3d918b53	0.07106652
75	0x3db47a6d	0.08812413
76	0x3c8defd3	0.017326271
77	0x3d516cf9	0.051129315
78	0x3d4de0f2	0.050263353
79	0x3d9762c1	0.07391883
80	0x3d82115f	0.063509695
81	0x3d89c546	0.0672708
82	0x3b061afc	0.0020462861
83	0x3d04d111	0.032425944
84	0xbdb0623c	-0.08612487
85	0x3c81e837	0.015857799
86	0xbdb3f459	-0.0878684
87	0xbd2820ad	-0.041046787
88	0xbc899a2d	-0.01679715
89	0xbd3fa6b4	-0.04678984
90	0xbda5cc27	-0.080955796
91	0xbc7c49a7	-0.015398419
92	0xbcda9347	-0.026681555
93	0x3b86229f	0.0040934826
94	0x3d5b0571	0.053471986
95	0xbcbebfc0	-0.023284793
96	0xbcb2f71f	-0.021846352
97	0x3bcb7fde	0.0062103113
98	0x3d4150f3	0.04719634
99	0xbbc00b8b	-0.005860751
100	0xbd4f7288	-0.050646335
101	0x3d268320	0.040652394
102	0x3d3a5f4f	0.04550105
103	0xbcfe8476	-0.031069022
104	0xbd29efdd	-0.041488517
105	0xbd5c20ec	-0.053742334
106	0xbc4c875b	-0.012483443
107	0xbbc4130d	-0.0059837163
108	0xbccabb81	-0.024747612
109	0xbb9e1b24	-0.0048250128
110	0xbe1fdcf9	-0.15611638
111	0x3d10e5fe	0.035375588
112	0x3d75b258	0.059984535
113	0xbd35d96b	-0.0443968
114	0x3cedfbf7	0.02905081
115	0xbdb422b5	-0.08795682
116	0x3ce3b2b6	0.027795177
117	0xbdb980db	-0.0905778
118	0xbd8a0be0	-0.06740546
119	0xbcb5c236	-0.022187334
120	0x3d340242	0.043947466
121	0x3b9e6095	0.004833291
122	0x3dcf54b3	0.10123577
123	0x3d17b61a	0.0370389
124	0x3ca9b55c	0.020716362
125	0xbdaa1cae	-0.083062515
126	0xbd87e010	-0.066345334
127	0xbd1c2cc6	-0.038128637
128	0x3d2131c7	0.039354112
129	0xbd1e6651	-0.038671795
130	0x3cac9372	0.021066401
131	0xbd195179	-0.037431214
132	0xbcca247b	-0.024675598
133	0xbc17542f	-0.0092363795
134	0xbc172b24	-0.009226594
135	0xbd698cc6	-0.057019018
136	0xbdb74500	-0.089487076
137	0x3c5db56a	0.013532022
138	0x3d15bc81	0.036556724
139	0x3e03db43	0.1287661
140	0x3da3f5d2	0.08005871
141	0x3da454cc	0.08023986
142	0x3d9dd4e8	0.07706624
143	0xbc239089	-0.00998319
144	0x3d3859b7	0.045007434
145	0xbd7b14fc	-0.06129931
146	0x3e07a2d5	0.13245709
147	0xbc649a88	-0.013952859
148	0xbcb452a1	-0.022012057
149	0x3d67b5b7	0.05656978
150	0x3ca608ce	0.02026787
151	0x3caa9dc0	0.020827174
152	0x3c48c0fc	0.012253042
153	0x3c5e9bc0	0.013586938
154	0xbb5bad4a	-0.0033520036
155	0x3d231ee0	0.039824367
156	0x39630bc7	0.00021652794
157	0xbca2fdbe	-0.019896384
158	0x3e1fe8bc	0.15616125
159	0xbcde09b6	-0.02710424
160	0xbcb1743d	-0.021661872
161	0xbd5cf0e1	-0.053940658
162	0xbc4f74ab	-0.012662093
163	0xbba59390	-0.005052991
164	0x3da6b54e	0.0814005
165	0xbcf308fd	-0.029667372
166	0x3cb99359	0.022653269
167	0x3b9256d0	0.0044659153
168	0x3dc7243b	0.09723707
169	0x3d70efab	0.058822315
170	0xbd437b17	-0.04772481
171	0x3cd2b21f	0.0257197
172	0xbda7c2fa	-0.08191486
173	0xbd953f97	-0.072875194
174	0xbddeb383	-0.10874083
175	0xbb7b9d5f	-0.003839336
176	0xbdb9b472	-0.0906762
177	0x3d85863b	0.06519743
178	0xbd0b5b52	-0.034022637
179	0xbd342d3a	-0.043988444
180	0x3c63882a	0.0138874445
181	0x3cad3764	0.021144576
182	0x3a8f79e3	0.0010946359
183	0x3cb35346	0.021890294
184	0x3cf793bd	0.030221814
185	0x3d12b277	0.03581473
186	0x3d495863	0.049156558
187	0x3cc713b2	0.024301384
188	0xbb2424e7	-0.002504641
189	0xbba38378	-0.0049900375
190	0xbdb19476	-0.08670895
191	0xbd71f5ba	-0.059072234
192	0xbd3102fe	-0.043215744
193	0x3c1beeb2	0.009517359
194	0xbd12620e	-0.035738043
195	0x3c8b8bba	0.0170344
196	0xbc00a9e0	-0.007853001
197	0xbc89688e	-0.016773488
198	0x3d681c13	0.0566674
199	0x3cb87ad6	0.02251951
200	0x3d6cc7ac	0.05780761
201	0xbd249156	-0.040177666
202	0xbddd8e2d	-0.108181335
203	0x3d7edcae	0.062222175
204	0xbc5e4ee1	-0.013568611
205	0x3d28215d	0.041047443
206	0x3c3fc0f3	0.0117037175
207	0xbd8677a3	-0.06565788
208	0x3d1c5141	0.038163427
209	0x3d0e3534	0.034718707
210	0x3d7cdcd1	0.061734024
211	0x3d362275	0.044466455
212	0xbd603bad	-0.05474441
213	0xbc537de9	-0.012908437
214	0xbb13cd7e	-0.0022552903
215	0x3e27ddf7	0.16393267
216	0x3d75bda2	0.0599953
217	0x3dde15c0	0.10843992
218	0x3dafbaec	0.085805744
219	0xbadb7672	-0.0016743673
220	0xbc0fe71e	-0.00878313
221	0xbd85fd13	-0.06542411
222	0xbc31583a	-0.0108242575
223	0xbdf152ca	-0.11783369
224	0xbda3d184	-0.07998946
225	0xbc43438d	-0.011917961
226	0xbbeb1268	-0.007173825
227	0x3dc84e85	0.097806014
228	0x3ca9ce22	0.020728175
229	0x3d618ac1	0.055063967
230	0x3d7954f9	0.060872052
231	0x3d63e236	0.055635653
232	0xbcf27d1b	-0.02960067
233	0xbc865a7a	-0.016400564
234	0x3ca32f49	0.019920008
235	0xbd1bcfbd	-0.03803991
236	0x3cb5e679	0.022204624
237	0x3d1e1ae9	0.038599882
238	0xbdb034d9	-0.0860383
239	0x3da166a1	0.07880903
240	0x3d15b6ca	0.036551274
241	0x3d9f0341	0.077642925
242	0x3d3f2c33	0.04667301
243	0x3ded94d0	0.11600649
244	0x3d493876	0.04912611
245	0xbb01f53c	-0.001983001
246	0x3d72173a	0.05910418
247	0xbde7b893	-0.113145016
248	0x3e099b39	0.13438119
249	0xbd29bb55	-0.04143842
250	0xbb8fee68	-0.004392434
251	0x3d1c7d0a	0.038205184
252	0x3cd4982e	0.025951471
253	0x3d7dafa1	0.06193507
254	0x3c95a1ad	0.01826557
255	0xbd41f8ee	-0.04735654

network_body._body_endoder.seq_layers.2.bias f4 [256]
0	0x3d560fa2	0.052261002
1	0x3b86615e	0.0041009625
2	0x3da03547	0.07822662
3	0xbd9cf46e	-0.07663809
4	0xbbb898a4	-0.0056334306
5	0x3d330793	0.043708395
6	0x3d3b57ce	0.045738034
7	0xbdeb1c7a	-0.11480041
8	0xbc6f0d5b	-0.014590587
9	0x3d491cc5	0.049099702
10	0xbdb1adef	-0.08675753
11	0x3d92d480	0.071694374
12	0x3c22f03e	0.0099449735
13	0x3d657744	0.056021944
14	0x3d8da5d5	0.069163956
15	0xbd85a96a	-0.06526454
16	0x3d3b0bfb	0.045665722
17	0x3d70f33f	0.058825728
18	0x3c0ae11f	0.008476525
19	0x3d3a39b0	0.04546517
20	0xbdc98401	-0.09839631
21	0xbd1b4872	-0.037910886
22	0xbd79e5a5	-0.06101002
23	0x3db302e9	0.087407894
24	0xbd9f93a1	-0.0779183
25	0x3d96a762	0.073561445
26	0xbd23e294	-0.040011004
27	0x3d068531	0.032841865
28	0x3d007ffa	0.031372048
29	0x3d2201e5	0.039552588
30	0xbd1b4083	-0.03790332
31	0x3dbe7cf3	0.09301176
32	0x3d660a7e	0.05616235
33	0x3d5764e5	0.052586455
34	0x3d889362	0.06668736
35	0x3d685b59	0.05672774
36	0xbdb1e7a0	-0.08686757
37	0xbd8072dc	-0.06271908
38	0x3d67e26b	0.056612413
39	0xbda62ec5	-0.08114389
40	0x3dd9330a	0.10605438
41	0x3d0c7091	0.03428704
42	0xbdd5e299	-0.10443611
43	0x3cd72e2c	0.026267134
44	0x3ce175a7	0.027521921
45	0xbd5e9fe5	-0.054351706
46	0x3d784558	0.060613006
47	0x3d928d04	0.07155803
48	0x3c810248	0.015748158
49	0x3d08bb75	0.033381898
50	0x3d9f4d53	0.0777842
51	0x3da071aa	0.0783418
52	0xbbf062d8	-0.007336002
53	0xbd0bc72d	-0.034125496
54	0xbc717cdc	-0.014739241
55	0xbd8bd9f0	-0.06828678
56	0xbdfa69a7	-0.12227183
57	0xbda5b8a9	-0.08091862
58	0x3d90c098	0.07067984
59	0x3d6a969a	0.05727253
60	0x3cbcc9c4	0.023045428
61	0xbd7f441b	-0.06232081
62	0xbdcf1c6b	-0.10112842
63	0x3db8250e	0.089914426
64	0x3cd27428	0.025690153
65	0xbda6be52	-0.081417695
66	0xbdd84934	-0.105608374
67	0xbddb28d4	-0.10701147
68	0xbd538a55	-0.051645596
69	0x3d27a915	0.040932734
70	0x3d89b2e1	0.067235716
71	0x3da26054	0.079285294
72	0x3d10fef4	0.035399392
73	0xbd8a4c9f	-0.067528956
74	0x3d5c8b08	0.053843528
75	0x3c1c4d7a	0.009539956
76	0x3d3bc935	0.045846183
77	0xbcc33396	-0.023828309
78	0x3d107993	0.035272192
79	0xbdfa6a7d	-0.12227342
80	0x3af9e3d2	0.0019065088
81	0x3d7487f7	0.05969998
82	0xbd5d613f	-0.05404782
83	0x3b7f65d8	0.0038970616
84	0xbde8d802	-0.11369325
85	0x3d8b3ff1	0.06799305
86	0xbdc706ae	-0.09718071
87	0x3d22d95c	0.03975807
88	0x3c0873f0	0.008328423
89	0xbd9edb18	-0.077566326
90	0xbc3adeea	-0.011405686
91	0xbde373d4	-0.11106077
92	0x3c71f5a5	0.014768039
93	0x3d4739bc	0.048639044
94	0xbd9bfacb	-0.07616194
95	0xbddaa2bc	-0.1067557
96	0x3c61806a	0.013763526
97	0x3d9dec1d	0.07711051
98	0xbdbc4268	-0.091923535
99	0x3d86162b	0.06547197
100	0xbdbfc05c	-0.093628615
101	0xbd95fd26	-0.07323675
102	0xbd39a162	-0.045319922
103	0xbda4a1e0	-0.08038688
104	0x3c004266	0.007828331
105	0x3cb68546	0.022280347
106	0xbcc8c835	-0.024509529
107	0xbdb259c9	-0.087085314
108	0xbdb7c1ad	-0.089724876
109	0xbdb62742	-0.088942066
110	0x3d1f7d23	0.0389377
111	0x3d584fe6	0.052810572
112	0x3d501304	0.050799385
113	0xbdbab574	-0.09116641
114	0xbd980465	-0.07422713
115	0x3d936627	0.071972184
116	0xbdd7066f	-0.10499274
117	0x3bfb952e	0.0076776957
118	0x3d9d8b2f	0.07692563
119	0xbc90b36c	-0.01766368
120	0xbb925099	-0.0044651744
121	0x3dc37bc6	0.09545092
122	0x3da1c471	0.07898796
123	0x3d9fff4b	0.07812365
124	0x3d9d5f06	0.0768414
125	0xbd7183d1	-0.0589636
126	0x3db42610	0.08796322
127	0xbb1bd199	-0.0023776053
128	0xbcc7590d	-0.024334455
129	0x3dd76cb5	0.10518781
130	0xbd8740bf	-0.06604146
131	0x3d13a21b	0.036043268
132	0xbdc0b72b	-0.094099365
133	0x3d515a47	0.051111486
134	0xbd9d161a	-0.07670231
135	0xbd8b9e2c	-0.06817278
136	0xbd3adb9f	-0.045619603
137	0xba195355	-0.0005848904
138	0x3d94d3c3	0.07266953
139	0x3cb8590b	0.022503396
140	0x3c519e3a	0.012794072
141	0x3d87db5b	0.066336356
142	0x3c1dab5d	0.009623376
143	0x3db605ca	0.08887823
144	0xbd01a677	-0.031652894
145	0xbdbd792c	-0.09251627
146	0xbd62d4a6	-0.05537858
147	0x3d50f6f8	0.051016778
148	0x3d9bcc22	0.076072946
149	0x3c619931	0.013769434
150	0xbda7c06c	-0.081909984
151	0x3d5eabe2	0.05436314
152	0xbd27a011	-0.040924136
153	0x3d8caaa2	0.06868483
154	0x3c2a3863	0.01038942
155	0x3d10e615	0.035375673
156	0xbdea48c0	-0.11439657
157	0x3c151cb4	0.009101082
158	0x3dc5cb1c	0.09657881
159	0x3d2aa8fb	0.04166506
160	0xbd560920	-0.052254796
161	0xbda9e7ec	-0.08296189
162	0xbd8c758c	-0.06858358
163	0x3d1f3d0d	0.038876582
164	0xbddb9c28	-0.10723144
165	0x3dee9e72	0.11651315
166	0x3da0a51f	0.07843994
167	0x3ce9b901	0.0285306
168	0xbd43902a	-0.047744907
169	0xbdde9415	-0.10868088
170	0x3cb1637f	0.021653889
171	0xbdc3a737	-0.09553378
172	0x3d881a4e	0.06645642
173	0xbdd78f45	-0.10525373
174	0x3d68854a	0.05676774
175	0x3d855379	0.06510062
176	0xbd36ebf7	-0.044658627
177	0xbd955684	-0.07291892
178	0x3d90d5e2	0.07072045
179	0x3dacb5e5	0.08433131
180	0xbd3ce26a	-0.046114363
181	0x3d7d886b	0.061897676
182	0xbdb26ffe	-0.08712767
183	0x3d2b0bf4	0.041759446
184	0x3d3544a8	0.04425493
185	0xbc981aa4	-0.01856739
186	0x3d4c75ba	0.04991696
187	0xbd12edb3	-0.03587122
188	0xbdcbadce	-0.0994526
189	0x3dbd050c	0.09229478
190	0x3d50ba63	0.050959002
191	0xbe02c6bd	-0.12771125
192	0x3d88581a	0.06657429
193	0x3d4eac5f	0.050457355
194	0x3bbbe5fa	0.0057342025
195	0xbdcf1844	-0.1011205
196	0xbca86e06	-0.020560276
197	0xbc0bcaad	-0.008532208
198	0xbcee364c	-0.029078625
199	0x3d16a16c	0.036775038
200	0x3cffb775	0.031215409
201	0x3b2762c7	0.0025541054
202	0xbda502fb	-0.08057209
203	0xbd7d5fce	-0.061858945
204	0x3c33cb11	0.010973708
205	0x3d80212f	0.06256329
206	0x3b472215	0.0030385305
207	0xbd82e7a0	-0.06391835
208	0xbd37f19a	-0.044908144
209	0x3d96edd4	0.07369581
210	0x3d932205	0.07184223
211	0xbdae74bd	-0.0851836
212	0x3ae0ca95	0.0017150218
213	0x3d58f7b5	0.052970607
214	0xbdd57d74	-0.10424319
215	0xbd8b50e4	-0.06802538
216	0xbca80a62	-0.020512763
217	0xbdff0ac7	-0.124532275
218	0xbd8ee0a6	-0.06976442
219	0x3d4da6fd	0.05020808
220	0x3d3dfa8e	0.046381526
221	0xbd88d21b	-0.066806994
222	0x3d950898	0.0727703
223	0x3d575dfe	0.052579872
224	0x3d174a03	0.036935817
225	0x3d94ec0a	0.072715834
226	0xbd1bfa51	-0.038080517
227	0x3d5d6f62	0.0540613
228	0x3dac67e8	0.08418256
229	0x3d258159	0.04040656
230	0x3d099aa3	0.03359474
231	0xbd1ea947	-0.038735654
232	0x3d58094c	0.05274324
233	0x3dbb6c08	0.09151465
234	0xbd180083	-0.037109863
235	0x3da8fefb	0.08251759
236	0xbdd26608	-0.10273367
237	0xbd2c12bb	-0.04201005
238	0xbdaf6770	-0.08564651
239	0x3c3dd8ca	0.011587331
240	0x3c3eeb42	0.0116527695
241	0x3c78fa55	0.015196403
242	0x3d81b061	0.0633247
243	0xbdfb798c	-0.122790426
244	0xbdb54f64	-0.08853033
245	0xbd8908c9	-0.06691129
246	0x3b0b3194	0.0021239268
247	0xbc8dab15	-0.017293492
248	0xbd809a59	-0.062794395
249	0xbdc53915	-0.09630028
250	0xbda62060	-0.08111644
251	0x3d7dff74	0.062011197
252	0xbc3646d2	-0.011125283
253	0x3d69700b	0.056991618
254	0x3a9aee11	0.0011820217
255	0xbdb4925d	-0.08816979

network_body._body_endoder.seq_layers.4.weight f4 [256, 256]
0	0x3a1d19cc	0.0005992919
1	0x3d94540c	0.07242593
2	0xbd1b62f1	-0.037936155
3	0xbcb96899	-0.022632884
4	0x3d342e64	0.043989554
5	0x3c91cb47	0.017797126
6	0x3d0dc109	0.03460792
7	0xbcbc6b52	-0.023000393
8	0xbd4a53c6	-0.0493963
9	0xbc25cadf	-0.010119169
10	0x3e09b3b1	0.13447453
11	0xbd81f559	-0.063456245
12	0x3d919f1f	0.07110428
13	0x3c129c83	0.008948448
14	0x3d0feb61	0.035136584
15	0x3dc843f2	0.097785845
16	0xbdc61d2d	-0.096735336
17	0xbd35a524	-0.044346943
18	0xbcc95b16	-0.024579566
19	0x3d408104	0.04699804
20	0xbddcbe89	-0.10778529
21	0xbd3b1336	-0.045672618
22	0x3d99feee	0.07519327
23	0xbdc0d2ff	-0.09415244
24	0x3d6329dc	0.055459842
25	0xbd27efc8	-0.041000158
26	0xbd1a2aaa	-0.037638344
27	0x3da66285	0.0812426
28	0x3beb24b4	0.007176006
29	0x3d72c042	0.059265383
30	0x3e19155d	0.14949556
31	0xbdd09a78	-0.101857126
32	0xbce9fa4e	-0.028561737
33	0xbd4aed74	-0.04954286
34	0xbd350559	-0.044194553
35	0x3ce85f5b	0.028365782
36	0xbd8bc7dd	-0.0682523
37	0xbd1ad6b5	-0.037802417
38	0x3d5e0666	0.05420532
39	0xbd9c10ec	-0.07620415
40	0xbc218868	-0.009859182
41	0x3d8ac9e4	0.06776789
42	0xbca77037	-0.02043925
43	0x3c840293	0.016114509
44	0xbcb69339	-0.022286998
45	0xbde54e31	-0.111965545
46	0x3cfaf482	0.030634169
47	0x3d290236	0.041261874
48	0x3dad8766	0.08473091
49	0xbdab6e6d	-0.083706714
50	0xbb8c174c	-0.004275238
51	0xbd838736	-0.06422274
52	0x3d59567a	0.053060986
53	0x3de5c336	0.11218874
54	0x3d334e96	0.043776117
55	0x3c58120b	0.0131878955
56	0x3d4576ea	0.04820911
57	0x3c1452bc	0.009052929
58	0x3d4dabdc	0.050212726
59	0xbc7edb2c	-0.015555184
60	0x3d074444	0.033024088
61	0x3d07f5f1	0.033193532
62	0xbc9183f5	-0.017763117
63	0x3d5e1c2b	0.05422608
64	0xbe4f2576	-0.20229134
65	0x3deae6a9	0.11469776
66	0x3d88857b	0.066660844
67	0x3cde097e	0.027104136
68	0x3d186b02	0.037211426
69	0x3da6fc26	0.08153562
70	0xbd422f80	-0.04740858
71	0x3d08b79d	0.033378232
72	0x3c81e267	0.015855027
73	0x3c7ec32b	0.015549461
74	0xbcc82abe	-0.024434444
75	0x3c31d2ef	0.010853513
76	0x3cd62fa9	0.026145773
77	0x3da739fc	0.081653565
78	0x3cb77f14	0.022399463
79	0x3ce96bd9	0.028493809
80	0xbd72620c	-0.059175536
81	0x3c4633c2	0.012097301
82	0x3d726f5e	0.05918824
83	0x3c1f3400	0.009716988
84	0xbd25be63	-0.04046477
85	0x3ce01485	0.027353534
86	0xbb270faf	-0.0025491526
87	0xbd0e318b	-0.034715217
88	0xbe05f5a6	-0.13081989
89	0xbd911d5a	-0.070856765
90	0xbcadd46d	-0.021219457
91	0x3d2e0e9e	0.04249441
92	0x3d29aa19	0.041421983
93	0xbd3cd4d1	-0.046101395
94	0xbd486869	-0.0489277
95	0xbd88e43b	-0.066841565
96	0xbd1ff61b	-0.039053064
97	0xbd663848	-0.056206018
98	0x3dbcc49e	0.09217189
99	0x3cdef69b	0.0272172
100	0x3d901ea7	0.070370965
101	0x3da1c768	0.07899362
102	0x3d4503ba	0.048099257
103	0xbd2efe1e	-0.042722814
104	0xbc75c0b4	-0.014999557
105	0xbd881b74	-0.06645861
106	0xbdc6f05f	-0.09713816
107	0x3b8526c2	0.004063458
108	0x3dab7bc0	0.08373213
109	0x3d550979	0.052010987
110	0x3d0722d2	0.03299219
111	0xbd3089c6	-0.04310014
112	0xbde5f145	-0.11227659
113	0xbd461841	-0.048362974
114	0x3ce6053f	0.028078673
115	0x3c71a5db	0.014749016
116	0xbdcc207a	-0.09967132
117	0x3d85ddec	0.06536469
118	0x3c6c70ee	0.014431221
119	0x3db7ef24	0.08981159
120	0x3bb3c223	0.0054857894
121	0xbc620412	-0.013794916
122	0xbdb64c47	-0.089012675
123	0xbd06824c	-0.032839105
124	0xbcd76d1d	-0.026297146
125	0x3a9e87ff	0.0012094973
126	0xbcade7b9	-0.021228658
127	0xbc721adc	-0.014776912
128	0x3d525d99	0.051358793
129	0x3c9a2468	0.018816188
130	0x3d71ecc7	0.0590637
131	0xbc929243	-0.017892009
132	0xbc72ddc0	-0.014823377
133	0xbd646617	-0.055761423
134	0x3d377946	0.04479339
135	0x3e005f2e	0.12536308
136	0xbc275b28	-0.010214604
137	0xbd63e97f	-0.0556426
138	0x3ca735ba	0.020411361
139	0x3d8df4dc	0.06931469
140	0x3d05ad26	0.03263583
141	0x3b6d0964	0.0036168927
142	0x3da68b4e	0.08132039
143	0x3db62f27	0.08895712
144	0x3d85a052	0.06524719
145	0x3d1782b7	0.036989894
146	0x3c7d70b7	0.015468768
147	0xbd75a0fd	-0.059967984
148	0xbd4d27b1	-0.05008668
149	0x3d8cafca	0.068694666
150	0xbbf5b6f6	-0.0074986173
151	0xb9a57845	-0.0003156086
152	0xbc6eae93	-0.014567989
153	0xbdacc10d	-0.08435259
154	0x3bbe832d	0.005813977
155	0x3e0c2fe3	0.13690142
156	0x3d7732ad	0.060351063
157	0xbc196666	-0.009362793
158	0x3d2b75d7	0.041860428
159	0x3d31eeee	0.04344075
160	0x3da50b12	0.08058752
161	0x3d99898f	0.0749694
162	0xbdc4ce2d	-0.096096374
163	0x3d56e12d	0.052460838
164	0x3dc86bb8	0.09786171
165	0xbd0ec861	-0.034859065
166	0x3a8ecbea	0.0010894511
167	0x3d09acc0	0.033612013
168	0xbc040bbc	-0.008059438
169	0x3d8ec64d	0.069714166
170	0xbc0e56b9	-0.0086876685
171	0xbbe2a74e	-0.006916917
172	0x3cac7f19	0.021056699
173	0x3d90bfa8	0.070678055
174	0x3ce2dac7	0.027692212
175	0xbcfd0aaf	-0.030888883
176	0xbd8c8453	-0.06861176
177	0x3d911f70	0.07086074
178	0xbd06f91f	-0.032952424
179	0xbd1dfb9e	-0.03857004
180	0xbbb33613	-0.0054690926
181	0x3ca2f502	0.01989222
182	0x3da8f7c5	0.08250383
183	0xbd3cb70f	-0.046073016
184	0x3dc74783	0.09730437
185	0xbd4cfff9	-0.050048802
186	0x3d072dd8	0.033002704
187	0x3c8fcf41	0.017554881
188	0xbd36a455	-0.044590313
189	0xbd213603	-0.03935815
190	0x3d830be6	0.06398754
191	0x3de5bbfb	0.11217495
192	0x3c0ee85f	0.008722394
193	0xbd204f93	-0.039138388
194	0xbdba3190	-0.090914845
195	0x3e27a0d2	0.16369942
196	0x3dd51ae2	0.10405518
197	0xbd5426cc	-0.051794812
198	0x3dd25f57	0.10272091
199	0x3c9f1ae0	0.019421995
200	0xbd77f47b	-0.06053589
201	0xbd68bcc3	-0.056820642
202	0xbd0d2b7d	-0.0344653
203	0x3e200365	0.15626295
204	0x3d6afc77	0.057369675
205	0x3d8518f5	0.06498901
206	0x3d621b7f	0.055202004
207	0x3c0f0b13	0.008730668
208	0xbd234411	-0.039859835
209	0x3cd70746	0.026248585
210	0x3c07028f	0.008240356
211	0x3d28a97e	0.041177265
212	0x3d07e609	0.033178363
213	0x3d4ff008	0.05076602
214	0x3dd75f94	0.10516277
215	0xbdd3bf05	-0.103391685
216	0xbc1a337a	-0.009411687
217	0x3da345ed	0.07972322
218	0xbd921e04	-0.07134631
219	0x3d4c38e3	0.04985894
220	0x3db2fe10	0.08739865
221	0xbdf87848	-0.12132317
222	0xbb6aff6e	-0.0035857814
223	0x3babfe2a	0.0052488046
224	0xbc1f7f6f	-0.009734972
225	0xbd08e2c8	-0.0334194
226	0xbd876812	-0.06611647
227	0xbd0cb2a1	-0.03435004
228	0xbca453bb	-0.020059457
229	0x3c97664d	0.018481398
230	0x3ca3d3a7	0.019998385
231	0x3e01fc0e	0.12693807
232	0xbd63fa1d	-0.05565845
233	0x3c93f91c	0.01806312
234	0xbc888c2f	-0.016668407
235	0x3c136021	0.008995087
236	0xbc5817b9	-0.01318925
237	0xbc11558c	-0.008870494
238	0xbc4c0b19	-0.012453818
239	0xbd9e3922	-0.07725741
240	0xbcd4bd49	-0.025969164
241	0x3d52fe43	0.051512014
242	0xbb7be100	-0.003843367
243	0x3c4c96b4	0.012487102
244	0x3c9a38ce	0.018825915
245	0xbc9f2499	-0.01942663
246	0x3c50c0a4	0.012741242
247	0x3da75198	0.0816986
248	0x3dd539d7	0.10411423
249	0xbce8a016	-0.028396647
250	0x3cad2572	0.02113602
251	0xbdcd41a4	-0.100222856
252	0x3d683a3e	0.05669617
253	0xbd894f1b	-0.06704541
254	0x3caab30c	0.02083733
255	0x3dbd9fde	0.09259008

network_body._body_endoder.seq_layers.4.bias f4 [256]
0	0xbd5506e0	-0.05200851
1	0xbcf83f0b	-0.030303499
2	0xbdbffefc	-0.09374806
3	0xbc9ec04a	-0.0193788
4	0xbd5fd2e7	-0.05464449
5	0xbd909dd9	-0.07061357
6	0xbd823862	-0.063584104
7	0xbd6e5ec6	-0.05819585
8	0xbda0a7cf	-0.07844507
9	0xbda10c4e	-0.07863675
10	0x3cfadcf8	0.030622944
11	0xbd85a939	-0.06526417
12	0xbd226ae5	-0.039652724
13	0xbd9f3a86	-0.07774834
14	0x3d0ca147	0.034333494
15	0xbd173cd1	-0.036923233
16	0xbd4067ef	-0.04697412
17	0x3d596b7e	0.05308103
18	0xbd9f01fc	-0.0776405
19	0xbd729bd6	-0.059230648
20	0xbd37f9c7	-0.04491594
21	0xbcc90aca	-0.024541277
22	0xbd800dbb	-0.06252619
23	0x3cf71a7e	0.030164
24	0xbd2c04ba	-0.041996695
25	0x3cce49ce	0.025181677
26	0xbd9a794f	-0.07542669
27	0x3d7b2d63	0.06132258
28	0x3c49f7cf	0.012327149
29	0xbd89b0e9	-0.06723196
30	0xbc9e17f8	-0.019298539
31	0x3d7c0cbb	0.06153558
32	0x3d207686	0.039175533
33	0xbdb5b790	-0.088729024
34	0xbc97aade	-0.018514093
35	0xbd949eba	-0.07256837
36	0xbcd20794	-0.02563838
37	0xbd226ee8	-0.03965655
38	0xbda02e21	-0.078212984
39	0x3d8ce9a8	0.06880504
40	0xbdc16691	-0.09443391
41	0xbdaa63a2	-0.08319785
42	0x3bfb3d97	0.007667254
43	0x3d8dbad2	0.06920399
44	0x3da436c6	0.0801826
45	0xbd93c148	-0.072146
46	0xbd0112a8	-0.031511933
47	0x3d2e907e	0.042618267
48	0xbd25b059	-0.04045138
49	0x3c9ed43a	0.019388307
50	0x3d411c74	0.047146276
51	0xbd619822	-0.055076726
52	0xbd73e3af	-0.059543308
53	0x3bd91d78	0.0066258274
54	0x3d6eac41	0.058269743
55	0xbd8b2faa	-0.067962006
56	0x3d4271de	0.047471873
57	0xbc178564	-0.009248111
58	0xbd7fa0b0	-0.062409103
59	0x3d15050c	0.036381766
60	0x3d4809ec	0.048837587
61	0xbd051fd2	-0.03250105
62	0x3d6e6bce	0.05820828
63	0xbd8af8c0	-0.067857265
64	0xbd7f78ab	-0.062370937
65	0x3d659069	0.056045923
66	0xb8fa2add	-0.00011928913
67	0xbd13a68b	-0.0360475
68	0x3948dc12	0.00019155469
69	0xbd1c9968	-0.038232237
70	0x3d838419	0.0642168
71	0xbd95ef56	-0.0732104
72	0x3b22e81d	0.0024857589
73	0xbd3b5444	-0.04573466
74	0xbd9f0ff8	-0.07766718
75	0xbcc51ddc	-0.02406209
76	0xbd4757fc	-0.048667893
77	0xbd8d6778	-0.06904501
78	0x3d7bd57f	0.061482903
79	0xbd9db827	-0.0770114
80	0x3c05bb2d	0.008162302
81	0xbd69c5cf	-0.05707341
82	0xbd38410c	-0.04498391
83	0x3d80d9db	0.06291553
84	0x3d734fa6	0.05940213
85	0xbd980749	-0.074232645
86	0x3cb48c18	0.022039458
87	0xbd67d1b9	-0.05659649
88	0x3d3a2a4d	0.045450497
89	0xbda83ebc	-0.08215091
90	0xbd2e4401	-0.042545322
91	0x3d74d07d	0.059769142
92	0xbd72066f	-0.059088167
93	0xbd92ce32	-0.07168235
94	0xbd73d7f1	-0.05953211
95	0xbdbd79dc	-0.092517585
96	0x3d450a54	0.048105553
97	0xbd604885	-0.05475666
98	0xbd926d8b	-0.071498
99	0xbd890ca7	-0.06691866
100	0xbd9d6e41	-0.07687045
101	0xbd18249c	-0.03714429
102	0x3d259eaa	0.040434517
103	0xbd70884d	-0.058723737
104	0xbd9de1e7	-0.07709103
105	0x3d346815	0.044044573
106	0x3d8e284b	0.06941279
107	0x3d214cfb	0.039380055
108	0x3d56fa19	0.052484605
109	0x3ca60c9e	0.020269688
110	0xbdab25d7	-0.08356827
111	0x3c0d2f4c	0.0086172335
112	0xbd3edcc2	-0.04659725
113	0x3c85bae9	0.016324477
114	0xbcb11910	-0.021618396
115	0x3c80ba63	0.015713876
116	0x3ccdab33	0.025106048
117	0x3d91567d	0.070965745
118	0x3d1b9581	0.037984375
119	0xbcdbf994	-0.026852407
120	0xbcf36b78	-0.029714331
121	0x3d2ebfa9	0.04266325
122	0xbd3a78d4	-0.045525387
123	0xbdb03fe3	-0.086059354
124	0x3d705434	0.058674052
125	0x3d4c532f	0.049884018
126	0xbcd89f18	-0.02644305
127	0xbc918557	-0.017763777
128	0xbd796faa	-0.060897507
129	0xbd54f672	-0.05199284
130	0xbdbb6db8	-0.091517866
131	0xbdaa61ef	-0.083194606
132	0xbd8f080d	-0.069839574
133	0xbd51e5d9	-0.05124459
134	0x3d155af9	0.03646371
135	0xbd9454ca	-0.07242735
136	0xbd45a069	-0.048248682
137	0xbda503b3	-0.08057346
138	0x3dc29f86	0.09503083
139	0xbd45c8b2	-0.0482871
140	0x3aed741b	0.0018116267
141	0xbd5a5856	-0.0533069
142	0x3cb711b2	0.022347305
143	0x3d90cb19	0.07069988
144	0xbcd1f348	-0.0256287
145	0xbd8f8de0	-0.070094824
146	0xbd4f7020	-0.05064404
147	0x3d74f09a	0.059799768
148	0xbd6724cf	-0.056431588
149	0x3d5ddcf8	0.05416581
150	0x3c93f0be	0.01805913
151	0x3c388f1c	0.011264589
152	0x3d8c9cb1	0.06865824
153	0x3cbe69fd	0.023243899
154	0x3c465953	0.0121062575
155	0xbda76860	-0.08174205
156	0xbd0597ae	-0.032615356
157	0xbd8bc8f3	-0.068254374
158	0xbc975951	-0.018475207
159	0x3c9e3eba	0.01931702
160	0xbca1199f	-0.019665537
161	0xbd6fe64d	-0.05856924
162	0xbd04c352	-0.032412834
163	0xbd7fd634	-0.06246014
164	0xbd879520	-0.0662024
165	0x3d40dd52	0.047086067
166	0x3d78b380	0.06071806
167	0xbcc6388d	-0.024196887
168	0xbd5fe3b5	-0.054660518
169	0x3d32920d	0.043596316
170	0xbd0444bf	-0.032292124
171	0x3d9ac257	0.07556599
172	0x3d5a6a4a	0.05332402
173	0x3d86f351	0.06589378
174	0x3d6b9fb1	0.05752534
175	0xbda6f0df	-0.08151411
176	0xbcf4d0b5	-0.029884676
177	0xbd20335b	-0.039111476
178	0x3c7b1a36	0.015326073
179	0xbc894f77	-0.016761525
180	0xbd863078	-0.065522134
181	0x3d050da5	0.032483716
182	0xbd648956	-0.055795036
183	0xbd9faef9	-0.07797045
184	0x3d0e192d	0.03469198
185	0xbbf933ca	-0.0076050507
186	0xbd4cfc70	-0.05004543
187	0x3d06a991	0.032876555
188	0xbd669714	-0.056296423
189	0xbc8c206b	-0.017105302
190	0x3d0409af	0.032235797
191	0x3cbe8c08	0.023260131
192	0x3d43cc2d	0.04780214
193	0x3d684545	0.056706686
194	0x3c6a2399	0.014290714
195	0xbd92cbe9	-0.07167799
196	0xbcd67fe0	-0.026184022
197	0xbdabbaf0	-0.08385265
198	0xbd984b6d	-0.07436261
199	0x3d027fc4	0.031860128
200	0xbd703640	-0.058645487
201	0x3c2ce96f	0.010553702
202	0xbd391fdd	-0.045196403
203	0x3c1e2d2c	0.0096543245
204	0xbd93d72b	-0.072187744
205	0xbdba8b90	-0.09108651
206	0x3d8772f7	0.06613725
207	0xbba0315a	-0.0048886957
208	0xbda95479	-0.08268065
209	0x3da80664	0.08204344
210	0xbd76bc9f	-0.060238477
211	0xbd085a59	-0.033289287
212	0x3ba22777	0.004948552
213	0xbd8fb75c	-0.07017395
214	0x3c68edc4	0.014216844
215	0x3c474d2f	0.012164398
216	0x3d76470f	0.06012636
217	0x3d902124	0.07037571
218	0xbdae46f2	-0.085096255
219	0x3d29d417	0.04146203
220	0x3d0df6db	0.034659248
221	0xbd8ca93e	-0.06868218
222	0x3d051716	0.03249272
223	0xbd39b45e	-0.045338027
224	0xbda0faba	-0.07860322
225	0x3d257a9b	0.04040013
226	0xbdb9643c	-0.09052321
227	0xbd6b077a	-0.057380177
228	0x3d1e984f	0.03871947
229	0xbd5265c7	-0.051366594
230	0xbc3d2bed	-0.011546117
231	0xbd9a438c	-0.07532415
232	0x3d40ad93	0.047040533
233	0xbcb62160	-0.022232711
234	0xbd3eae72	-0.046553083
235	0x3d7eca1e	0.062204473
236	0x3b4d3e62	0.00313177
237	0x3d6bf5ca	0.05760745
238	0xbd650d16	-0.055920683
239	0xbd9d5a47	-0.07683235
240	0xbd873642	-0.06602146
241	0x3d8518db	0.064988814
242	0x3d1d3452	0.038379975
243	0x3cd60666	0.026126098
244	0xbd253432	-0.04033298
245	0x3d28570d	0.041098643
246	0x3d49779a	0.049186327
247	0xbd79e064	-0.06100501
248	0x3ccac001	0.024749758
249	0xbcc80fd3	-0.024421608
250	0x3ce97122	0.028496329
251	0xbdafb00b	-0.085784994
252	0x3c785a56	0.0151582565
253	0x3d0fa71b	0.035071474
254	0xbd651c39	-0.05593512
255	0x3b0fc2b2	0.0021936116

action_model._continuous_distribution.log_sigma f4 [1, 4]
0	0xbd53e8bb	-0.05173562
1	0x3d2bfd58	0.041989654
2	0xbbeac780	-0.0071648955
3	0xbccd2451	-0.025041731

action_model._continuous_distribution.mu.weight f4 [4, 256]
0	0xbcdcbb06	-0.026944648
1	0xbd13ab3d	-0.036051977
2	0xbd92cc0c	-0.07167825
3	0xbc43a074	-0.0119401105
4	0xbd0fc22e	-0.035097294
5	0xbd6f8445	-0.05847575
6	0xbd8285cb	-0.06373175
7	0xbd17b5d7	-0.03703865
8	0xbd2a41b3	-0.041566562
9	0xbd688614	-0.056768492
10	0x3c805ccd	0.01566925
11	0xbd56dfa4	-0.052459374
12	0xbce61ee0	-0.028090894
13	0xbd5ac884	-0.053413883
14	0x3c31249a	0.010811949
15	0xbca0cc98	-0.019628808
16	0xbcec702b	-0.02886208
17	0x3c938c73	0.018011307
18	0xbd93faac	-0.07225546
19	0xbcdf1821	-0.027233185
20	0xbd029a45	-0.031885404
21	0xbc300c57	-0.01074513
22	0xbd8ae25f	-0.06781458
23	0x3c198a26	0.009371316
24	0xbcc350a3	-0.023842162
25	0x3c5ae528	0.013360299
26	0xbcf9cbda	-0.030492712
27	0x3c8db546	0.017298352
28	0xb9d95f08	-0.0004146027
29	0xbd41f8e9	-0.04735652
30	0xbc0783a9	-0.008271136
31	0x3ca7a6fa	0.020465363
32	0x3cc29b39	0.023755657
33	0xbd9c8fd1	-0.07644618
34	0xbce2013e	-0.027588483
35	0xbdaa6fe2	-0.08322121
36	0xbc4a9684	-0.012364987
37	0xbcb4948d	-0.02204349
38	0xbd85b0d6	-0.065278694
39	0x3d45a23b	0.04825042
40	0xbd94f0e2	-0.07272507
41	0xbd4f7061	-0.050644282
42	0x3bdb2027	0.0066871825
43	0x3d156ceb	0.036480825
44	0x3cf36c29	0.02971466
45	0xbd3a75a9	-0.045522366
46	0xbcccbd96	-0.024992745
47	0x3cf129e3	0.029438918
48	0xbcf6d1de	-0.03012937
49	0x3bf159a9	0.0073654247
50	0x3d3c6b9f	0.046001073
51	0xbcd6a3c8	-0.026201144
52	0xbd622262	-0.05520857
53	0x3b794385	0.003803463
54	0x3d0e82a9	0.034792576
55	0xbd8e7240	-0.06955385
56	0x3ccf0904	0.025272854
57	0xbc3c9c63	-0.011511895
58	0xbc8c6495	-0.017137805
59	0x3c575a12	0.013144033
60	0x3cfece12	0.031104121
61	0xbc49369d	-0.012281087
62	0x3d10434d	0.035220433
63	0xbd097845	-0.033561964
64	0xbda0992b	-0.078417145
65	0x3ca8f5f1	0.020625087
66	0x3ab3af07	0.0013708778
67	0xbce466c9	-0.027881043
68	0x3b0aa0cb	0.002115297
69	0xbca64ac5	-0.020299325
70	0x3d3f6152	0.04672367
71	0xbd8fb94c	-0.070177644
72	0x386cf5a0	5.649554e-05
73	0xbcc0cfb8	-0.023536548
74	0xbda15a5a	-0.07878561
75	0xbd14f778	-0.036368817
76	0xbce6e021	-0.028183045
77	0xbd96b193	-0.07358088
78	0x3cdd9699	0.02704935
79	0xbd577988	-0.052606136
80	0x3a988fb3	0.0011639505
81	0xbd19189d	-0.03737699
82	0xbd113da5	-0.03545918
83	0x3c9bbb94	0.019010343
84	0x3cef6c61	0.029226484
85	0xbdb65140	-0.08902216
86	0xbb6cfbff	-0.0036160944
87	0xbd210d59	-0.03931937
88	0x3c9c80e8	0.019104436
89	0xbd94d697	-0.07267492
90	0xbcaf2df2	-0.021384213
91	0x3d0ef666	0.034902953
92	0xbd4de68d	-0.0502687
93	0xbd549740	-0.051902056
94	0xbd1219c3	-0.0356691
95	0xbd8281d6	-0.063724205
96	0x3ccb9797	0.024852557
97	0xbcec67cc	-0.028858088
98	0xbd4d4541	-0.050114874
99	0xbd8e6da1	-0.06954504
100	0xbd5d3120	-0.054001927
101	0xbc575172	-0.013141977
102	0x3c925ec5	0.017867455
103	0xbd5500e0	-0.052002788
104	0xbd65c316	-0.05609425
105	0x3cda3422	0.026636187
106	0x3d53c73f	0.051703688
107	0x3c9ccaa2	0.019139592
108	0x3cbe7f87	0.02325417
109	0xba7f83e1	-0.00097471295
110	0xbd836bcf	-0.06417047
111	0x3b03d9c9	0.0020118824
112	0xbc90c52b	-0.017672142
113	0x3acfc179	0.0015850506
114	0xbc10d61f	-0.008840113
115	0x3afb3699	0.0019166052
116	0x3bc753cf	0.006082989
117	0x3d0129c6	0.03153398
118	0x3c88d3ec	0.016702615
119	0xbc9ed150	-0.019386917
120	0xbc47b070	-0.012188062
121	0x3cfd31d8	0.030907556
122	0xbd18774e	-0.037223153
123	0xbda740b7	-0.0816664
124	0x3d0a8767	0.033820536
125	0x3ca4bac0	0.02010858
126	0xbc7bfe16	-0.015380403
127	0xbb97523e	-0.0046179583
128	0xbd6604ee	-0.056157045
129	0xbd25548d	-0.040363837
130	0xbd73e3b6	-0.059543334
131	0xbd9f5acc	-0.0778099
132	0xbda0d334	-0.07852784
133	0xbd5806cf	-0.05274087
134	0x3cb579de	0.022152837
135	0xbda4ef53	-0.0805346
136	0xbcf3d3fe	-0.029764172
137	0xbd8498cd	-0.06474457
138	0x3d86871c	0.06568739
139	0xbd31f6d9	-0.043448303
140	0x3aec472c	0.0018026582
141	0xbd10d810	-0.035362303
142	0x3c04f8f7	0.0081159985
143	0x3d178028	0.036987454
144	0xbc56b8c6	-0.013105577
145	0xbd73d50c	-0.05952935
146	0xbd1ae78c	-0.037818477
147	0x3cb7d99b	0.02244263
148	0xbd907766	-0.070540234
149	0x3cbabac4	0.022794135
150	0x3bcc305e	0.0062313518
151	0x3bab4e66	0.0052278517
152	0x3cd4a6d5	0.025958458
153	0x3c82b7a1	0.015956702
154	0x3ae245b4	0.0017263205
155	0xbd6b1808	-0.057395965
156	0xbbf4c6ef	-0.007470004
157	0xbd8a6de8	-0.06759244
158	0xbb25ba92	-0.0025288207
159	0x3beff393	0.0073227375
160	0xbc597d99	-0.013274574
161	0xbd008b1c	-0.031382665
162	0xbc2803ef	-0.010254844
163	0xbcb41460	-0.021982372
164	0xbd5078dd	-0.050896514
165	0x3c8ed730	0.017436594
166	0x3cb161b8	0.021653041
167	0xbc8ac66a	-0.016940314
168	0xbd12007d	-0.035644997
169	0x3c18afbe	0.009319244
170	0xbcaedc40	-0.021345258
171	0x3d39ad16	0.045331083
172	0x3cd1c0c9	0.025604622
173	0x3d2cbace	0.04217034
174	0x3cde77ac	0.027156673
175	0xbd777c05	-0.06042101
176	0xbbb44d7c	-0.005502401
177	0xbc2de0c1	-0.010612668
178	0x3b5de1a7	0.0033856423
179	0xbba5ac13	-0.0050559132
180	0xbd86212e	-0.06549297
181	0x3c7ffb6e	0.01562391
182	0xbd0cdae4	-0.034388438
183	0xbda959ae	-0.08269058
184	0x3c8cdcbd	0.0171951
185	0xbc22b291	-0.009930269
186	0xbc482743	-0.012216392
187	0x3bdbe504	0.0067106504
188	0xbd380e7b	-0.044935685
189	0xbbcd1d77	-0.006259616
190	0x3c27f8b7	0.010252169
191	0x3bf2c63d	0.0074088858
192	0x3d00614b	0.031342786
193	0x3ca317fb	0.019908896
194	0x3b8bd136	0.0042668832
195	0xbd3077ee	-0.043083124
196	0xbc157a35	-0.009123375
197	0xbd537bd4	-0.051631764
198	0xbd213285	-0.03935482
199	0x3c487f6e	0.012237413
200	0xbce0242d	-0.027361
201	0x3c8bf5a9	0.017084913
202	0xbcb1e8bf	-0.021717427
203	0x3ac8c414	0.0015317225
204	0xbd835ac6	-0.06413798
205	0xbd768b83	-0.060191642
206	0x3d160ff0	0.036636293
207	0xbbc14f84	-0.0058993716
208	0xbd9dcf19	-0.07705516
209	0x3cbe99e6	0.023266744
210	0xbd3f3680	-0.046682835
211	0xbc943cf1	-0.018095465
212	0xbb0de6c6	-0.0021652444
213	0xbd8c6e91	-0.06857026
214	0x3bfb05d2	0.007660606
215	0x3b540c06	0.00323558
216	0x3ceae505	0.028673658
217	0x3d327732	0.043570705
218	0xbda29ea1	-0.07940412
219	0x3c97cc21	0.018529953
220	0x3cabdc6a	0.020979125
221	0xbd52044d	-0.051273633
222	0x3ca17bb3	0.019712305
223	0xbc320297	-0.010864875
224	0xbd235c36	-0.03988286
225	0x3caff289	0.021477954
226	0xbd9a8140	-0.07544184
227	0xbcbd56ce	-0.02311268
228	0x3c940c46	0.018072259
229	0xbcfffcd3	-0.031248486
230	0xbbd53f25	-0.0065077716
231	0xbd425f5a	-0.047454216
232	0x3c8b3783	0.016994243
233	0xbc9f8382	-0.019471887
234	0xbc9cbe11	-0.0191336
235	0x3d2f10b3	0.042740535
236	0x3b1b3fbf	0.0023689119
237	0x3d387eda	0.04504285
238	0xbd28e937	-0.041238036
239	0xbdb41332	-0.08792724
240	0xbd98daba	-0.07463594
241	0x3cfa9c8a	0.030592222
242	0x3ca8d45a	0.02060907
243	0x3c40ed19	0.0117752785
244	0xbcddf052	-0.027092133
245	0x3c16dce8	0.009207942
246	0x3cec67ee	0.028858151
247	0xbd5053a5	-0.05086102
248	0x3ca0dcc3	0.019636517
249	0xbc3cfd73	-0.011535036
250	0x3ca0b51e	0.019617613
251	0xbd721995	-0.05910643
252	0xba93b1b0	-0.0011268165
253	0x3bdd4c08	0.0067534484
254	0xbd4933bd	-0.049121607
255	0x3a0d9fc7	0.0005402532

action_model._continuous_distribution.mu.bias f4 [4]
0	0x3d974921	0.07386995
1	0x3c2c216a	0.010506013
2	0x3b95555b	0.0045572943
3	0xbb82b6da	-0.0039890828
